…
      "reasonsForNotLabeling": "0",
      "reasonsForLabeling": ""
    }
  },
  {
    "postURL": "https://stackoverflow.com/questions/42475381",
    "title": "",
    "question": "\"In keras.applications, there is a VGG16 model pre-trained on imagenet.\n\nfrom keras.applications import VGG16\nmodel = VGG16(weights='imagenet')\n\nThis model has the following structure.\n\nLayer (type)                     Output Shape          Param #     Connected to                     \n====================================================================================================\ninput_1 (InputLayer)             (None, 3, 224, 224)   0                                            \n____________________________________________________________________________________________________\nblock1_conv1 (Convolution2D)     (None, 64, 224, 224)  1792        input_1[0][0]                    \n____________________________________________________________________________________________________\nblock1_conv2 (Convolution2D)     (None, 64, 224, 224)  36928       block1_conv1[0][0]               \n____________________________________________________________________________________________________\nblock1_pool (MaxPooling2D)       (None, 64, 112, 112)  0           block1_conv2[0][0]               \n____________________________________________________________________________________________________\nblock2_conv1 (Convolution2D)     (None, 128, 112, 112) 73856       block1_pool[0][0]                \n____________________________________________________________________________________________________\nblock2_conv2 (Convolution2D)     (None, 128, 112, 112) 147584      block2_conv1[0][0]               \n____________________________________________________________________________________________________\nblock2_pool (MaxPooling2D)       (None, 128, 56, 56)   0           block2_conv2[0][0]               \n____________________________________________________________________________________________________\nblock3_conv1 (Convolution2D)     (None, 256, 56, 56)   295168      block2_pool[0][0]                \n____________________________________________________________________________________________________\nblock3_conv2 (Convolution2D)     (None, 256, 56, 56)   590080      block3_conv1[0][0]               \n____________________________________________________________________________________________________\nblock3_conv3 (Convolution2D)     (None, 256, 56, 56)   590080      block3_conv2[0][0]               \n____________________________________________________________________________________________________\nblock3_pool (MaxPooling2D)       (None, 256, 28, 28)   0           block3_conv3[0][0]               \n____________________________________________________________________________________________________\nblock4_conv1 (Convolution2D)     (None, 512, 28, 28)   1180160     block3_pool[0][0]                \n____________________________________________________________________________________________________\nblock4_conv2 (Convolution2D)     (None, 512, 28, 28)   2359808     block4_conv1[0][0]               \n____________________________________________________________________________________________________\nblock4_conv3 (Convolution2D)     (None, 512, 28, 28)   2359808     block4_conv2[0][0]               \n____________________________________________________________________________________________________\nblock4_pool (MaxPooling2D)       (None, 512, 14, 14)   0           block4_conv3[0][0]               \n____________________________________________________________________________________________________\nblock5_conv1 (Convolution2D)     (None, 512, 14, 14)   2359808     block4_pool[0][0]                \n____________________________________________________________________________________________________\nblock5_conv2 (Convolution2D)     (None, 512, 14, 14)   2359808     block5_conv1[0][0]               \n____________________________________________________________________________________________________\nblock5_conv3 (Convolution2D)     (None, 512, 14, 14)   2359808     block5_conv2[0][0]               \n____________________________________________________________________________________________________\nblock5_pool (MaxPooling2D)       (None, 512, 7, 7)     0           block5_conv3[0][0]               \n____________________________________________________________________________________________________\nflatten (Flatten)                (None, 25088)         0           block5_pool[0][0]                \n____________________________________________________________________________________________________\nfc1 (Dense)                      (None, 4096)          102764544   flatten[0][0]                    \n____________________________________________________________________________________________________\nfc2 (Dense)                      (None, 4096)          16781312    fc1[0][0]                        \n____________________________________________________________________________________________________\npredictions (Dense)              (None, 1000)          4097000     fc2[0][0]                        \n====================================================================================================\nTotal params: 138,357,544\nTrainable params: 138,357,544\nNon-trainable params: 0\n____________________________________________________________________________________________________\n\nI would like to fine-tune this model with dropout layers between the de
…
dropout2 = Dropout(0.85)\n\n# Reconnect the layers\nx = dropout1(fc1.output)\nx = fc2(x)\nx = dropout2(x)\npredictors = predictions(x)\n\n# Create a new model\nmodel2 = Model(input=model.input, output=predictors)\n\nmodel2 has the dropout layers as I wanted\n\n____________________________________________________________________________________________________\nLayer (type)                     Output Shape          Param #     Connected to                     \n====================================================================================================\ninput_1 (InputLayer)             (None, 3, 224, 224)   0                                            \n____________________________________________________________________________________________________\nblock1_conv1 (Convolution2D)     (None, 64, 224, 224)  1792        input_1[0][0]                    \n____________________________________________________________________________________________________\nblock1_conv2 (Convolution2D)     (None, 64, 224, 224)  36928       block1_conv1[0][0]               \n____________________________________________________________________________________________________\nblock1_pool (MaxPooling2D)       (None, 64, 112, 112)  0           block1_conv2[0][0]               \n____________________________________________________________________________________________________\nblock2_conv1 (Convolution2D)     (None, 128, 112, 112) 73856       block1_pool[0][0]                \n____________________________________________________________________________________________________\nblock2_conv2 (Convolution2D)     (None, 128, 112, 112) 147584      block2_conv1[0][0]               \n____________________________________________________________________________________________________\nblock2_pool (MaxPooling2D)       (None, 128, 56, 56)   0           block2_conv2[0][0]               \n____________________________________________________________________________________________________\nblock3_conv1 (Convolution2D)     (None, 256, 56, 56)   295168      block2_pool[0][0]                \n____________________________________________________________________________________________________\nblock3_conv2 (Convolution2D)     (None, 256, 56, 56)   590080      block3_conv1[0][0]               \n____________________________________________________________________________________________________\nblock3_conv3 (Convolution2D)     (None, 256, 56, 56)   590080      block3_conv2[0][0]               \n____________________________________________________________________________________________________\nblock3_pool (MaxPooling2D)       (None, 256, 28, 28)   0           block3_conv3[0][0]               \n____________________________________________________________________________________________________\nblock4_conv1 (Convolution2D)     (None, 512, 28, 28)   1180160     block3_pool[0][0]                \n____________________________________________________________________________________________________\nblock4_conv2 (Convolution2D)     (None, 512, 28, 28)   2359808     block4_conv1[0][0]               \n____________________________________________________________________________________________________\nblock4_conv3 (Convolution2D)     (None, 512, 28, 28)   2359808     block4_conv2[0][0]               \n____________________________________________________________________________________________________\nblock4_pool (MaxPooling2D)       (None, 512, 14, 14)   0           block4_conv3[0][0]               \n____________________________________________________________________________________________________\nblock5_conv1 (Convolution2D)     (None, 512, 14, 14)   2359808     block4_pool[0][0]                \n____________________________________________________________________________________________________\nblock5_conv2 (Convolution2D)     (None, 512, 14, 14)   2359808     block5_conv1[0][0]               \n____________________________________________________________________________________________________\nblock5_conv3 (Convolution2D)     (None, 512, 14, 14)   2359808     block5_conv2[0][0]               \n____________________________________________________________________________________________________\nblock5_pool (MaxPooling2D)       (None, 512, 7, 7)     0           block5_conv3[0][0]               \n____________________________________________________________________________________________________\nflatten (Flatten)                (None, 25088)         0           block5_pool[0][0]                \n____________________________________________________________________________________________________\nfc1 (Dense)                      (None, 4096)          102764544   flatten[0][0]                    \n____________________________________________________________________________________________________\ndropout_1 (Dropout)              (None, 4096)          0           fc1[0][0]                        \n____________________________________________________________________________________________________\nfc2 (Dense)                      (None, 4096)          16781312    dropout_1[0][0]                  \n____________________________________________________________________________________________________\ndropout_2 (Dropout)              (None, 4096)          0           fc2[1][0]                        \n____________________________________________________________________________________________________\npredictions (Dense)              (None, 1000)          4097000     dropout_2[0][0]                  \n====================================================================================================\nTotal params: 138,357,544\nTrainable params: 138,357,544\nNon-trainable params: 0\n____________________________________________________________________________________________________\"",
    "mlApiName": "keras.models,keras.applications.vgg16.VGG16,keras.layers.Dropout",
…
